model.tflite (tflite, 2496 bytes, 1 tensors)

sequential_3/dense_6/MatMul f4 [1, 343]
000000 92 12 8b bf 65 1c 88 bf 1b 39 6e bf b5 e5 fb be
       -1.0865042 -1.0633665 -0.93055886 -0.4919869
000010 71 b6 71 bf b3 ec a3 bf 65 11 93 bf 2e c1 4a bf
       -0.9441901 -1.280661 -1.1489683 -0.7920102
000020 1b 5c 8f bf 1d 1f 82 bf f7 1b 2a bf bf 1b 53 bf
       -1.1199983 -1.0165745 -0.6644892 -0.8246421
000030 7a c4 81 bf 9e 20 89 bf b5 1d 6a 3d bc a8 f5 be
       -1.0138085 -1.0713079 0.057157237 -0.47980297
000040 99 37 1f bf 03 56 95 bb d5 fc 80 be 86 8c 24 3e
       -0.6219421 -0.0045573725 -0.25192896 0.1606923
000050 73 20 d9 be d7 ab 5c be a7 90 d9 bd 85 9b 2f be
       -0.4240757 -0.21549927 -0.10623293 -0.1714917
000060 d7 2f 18 3e 13 41 d1 3c 3c 9d 8f be 5e 8b 29 3e
       0.14862 0.025543725 -0.28049648 0.1655707
000070 60 d0 5a be 0a 35 36 be 00 ae 59 ba b8 6d a3 3c
       -0.21368551 -0.1779367 -0.0008303821 0.019949779
000080 a7 5d 66 be e8 00 62 be 51 59 bd be 28 9f 16 3e
       -0.22496663 -0.22070658 -0.36982206 0.14709151
000090 dd e2 ae bc 35 82 4b 3e 79 86 b6 be 16 90 51 be
       -0.021348411 0.19873889 -0.3564947 -0.2046512
0000a0 00 13 00 3b 56 20 41 bf 61 49 f9 be 36 11 9b be
       0.0019542575 -0.75439966 -0.48688796 -0.30286568
0000b0 70 a4 c5 bd 83 6d cc be ce 56 3b 3f aa 74 52 3e
       -0.096505046 -0.399273 0.7317933 0.20552316
0000c0 48 43 28 bf 11 cd 4f 3f d9 2a da be 84 d2 11 be
       -0.65727663 0.8117228 -0.42610815 -0.14240462
0000d0 56 b9 8e bd 0d da f3 be a1 60 12 3e 0e fa ac be
       -0.06968944 -0.47627297 0.14294674 -0.33784527
0000e0 de 2e da bb 8f bc 18 3d ff ec 44 bf 3e cb ac 3d
       -0.006658419 0.0372892 -0.7692413 0.08437203
0000f0 f2 0c 8f 3e e1 ab e4 be ce 64 44 be 48 bf 6e 3e
       0.27939564 -0.44662383 -0.19179079 0.23315156
000100 4a 9b c7 3d ac 45 12 be 6a b1 0f bf 7c 55 01 bf
       0.09746416 -0.1428439 -0.5613009 -0.50521064
000110 2b 52 a1 be 83 5d ae be 95 1e d2 be b4 90 0d 3e
       -0.31508002 -0.3405572 -0.41038957 0.13824731
000120 50 db 34 3e 56 37 6e bf f8 5e 0b bf 27 5a 7b 3e
       0.17661786 -0.93053186 -0.54441786 0.24546109
000130 0c aa fd 3d a3 06 91 be 32 c9 0a be fa 22 cb 3d
       0.123859495 -0.28325376 -0.13553312 0.099187806
000140 b9 48 2e bf 92 dd 91 bd c3 87 26 bf 3d 0a 1e be
       -0.68079716 -0.07122339 -0.65050906 -0.15433593
000150 52 cc 95 bd a0 0d 0c 3d 1a 79 b1 bd 2a 57 8c be
       -0.07314362 0.03419268 -0.086656764 -0.2741025
000160 c7 5b b2 be 10 7b 9e 3d 5e a0 8a be be c4 e8 3e
       -0.34835646 0.07738316 -0.27075475 0.45462602
000170 a5 18 80 bb 28 71 17 3f f3 b0 6d bb fc 4f a4 3c
       -0.003909188 0.5915704 -0.00362688 0.02005767
000180 2a 23 21 bf 1a 8d ed be 83 0a a4 be a2 d3 7f be
       -0.6294428 -0.46396714 -0.3203927 -0.24983075
000190 62 c3 00 3f 74 37 58 be 9c e2 27 be 3e 84 b0 be
       0.5029813 -0.21114904 -0.16395038 -0.34475893
0001a0 9c 27 06 bf 7e 94 38 bd f1 7b 56 3e 75 07 83 3e
       -0.5240419 -0.04506349 0.20945717 0.25591627
0001b0 91 12 e4 bc 9d e4 04 3d 58 f5 b3 be 8f 6a 04 bf
       -0.027840884 0.032444585 -0.3514812 -0.51725096
0001c0 d7 9b 93 be 7f 75 9e bd da 32 19 3e 97 05 05 be
       -0.28829834 -0.07737254 0.14960805 -0.12990414
0001d0 29 02 13 3e 51 61 50 3f 4a e6 5c 3e 5a f3 55 be
       0.14356293 0.81398493 0.21572223 -0.20893613
0001e0 ea ae 0b bf e5 f3 06 3e 12 e2 10 bd a0 3c 2c bc
       -0.5456377 0.13178976 -0.035371847 -0.010512501
0001f0 45 4a 88 bf 5f 59 7d be 93 92 7d be b0 0c 5c be
       -1.0647665 -0.24741124 -0.24762945 -0.21489215
000200 68 ec 32 bf 06 29 40 3f 4e 57 5f be e2 f7 d0 3d
       -0.6989198 0.75062597 -0.21810648 0.1020353
000210 28 44 bd 3e 98 da 52 bf 99 fd 0f bf ec 00 a0 3e
       0.36966062 -0.823648 -0.56246334 0.31250703
000220 f4 a9 f4 be ba d4 81 3e a8 c9 06 bd c9 9f 1c bf
       -0.47785914 0.2535761 -0.032907158 -0.6118131
000230 6d dc 10 bf 21 1f 03 bf 8b d7 25 be e2 f4 cc be
       -0.56586343 -0.51219374 -0.16195504 -0.4003058
000240 65 5f 9e bd 28 48 3d bf cc 5b 3f be 2e cd 29 be
       -0.07733039 -0.73938227 -0.18687361 -0.16582176
000250 3f 8c f9 be 37 fc 38 be 32 7b 73 bd 3a f0 a4 be
       -0.48739812 -0.18064962 -0.05944366 -0.32214528
000260 f6 bd 60 bf 54 52 49 3d d4 06 c5 be 57 71 12 3f
       -0.8778986 0.04915078 -0.38481772 0.5720419
000270 af d8 b8 be d9 6e 87 be 12 25 0b bf f2 9d ab 3e
       -0.36102816 -0.26451758 -0.5435344 0.3351894
000280 93 f3 ce be 5a e9 8c 3e af b1 82 bf d6 b2 a5 3d
       -0.40420207 0.27521783 -1.0210475 0.08090751
000290 47 bd 06 bf d8 8b a5 3d 9a a2 b4 bc 23 85 66 be
       -0.52632564 0.08083314 -0.02205019 -0.22511725
0002a0 2b 8b e6 be 84 e8 3c bf 40 69 3b 3c 54 ba 44 bd
       -0.45028052 -0.7379229 0.011438668 -0.04802926
0002b0 1e 76 10 bf db d4 4b be e5 b0 4a bf cf 51 16 bf
       -0.5643023 -0.19905417 -0.7917617 -0.5871858
0002c0 f2 ae ca bd ac 49 f4 bd d3 ad 8f 3e 1c 8f dc be
       -0.098966494 -0.11928114 0.28062305 -0.43077934
0002d0 aa dc c3 be d5 83 88 be ad 28 9b 3d 7f af 50 bc
       -0.3825429 -0.2666308 0.07576118 -0.012737154
0002e0 f0 dd b9 be 5c 8a d8 be da 7b 06 bf 06 c9 47 be
       -0.36302137 -0.4229306 -0.5253273 -0.19510278
0002f0 3c 7c 2e be 98 a9 41 bd 2a ec 0f bf b1 80 5c bf
       -0.17039579 -0.047280878 -0.5621973 -0.8613387
000300 9a 5a 06 be 37 89 4c bd 50 c8 a5 be d5 14 39 bf
       -0.13120499 -0.049935546 -0.3237939 -0.7229741
000310 9e 42 47 3e cf 47 82 be 5d c5 66 bf 14 a3 f8 be
       0.19459006 -0.2544541 -0.901449 -0.4856192
000320 2f 85 5c bf 1d 32 5c be a7 bb b0 be 4c ad 5c 3e
       -0.8614072 -0.21503492 -0.34518167 0.21550483
000330 25 da 37 bf bd b2 11 be ab d6 82 be 4f c6 c0 bd
       -0.7181724 -0.1422834 -0.25554404 -0.09412824
000340 96 7b 74 be 87 f3 49 bf 76 4e d4 3d 0e 8f ab be
       -0.2387527 -0.7888722 0.10366528 -0.3350758
000350 5a 33 e2 3e 1d d3 9e be 11 62 1a bf fb 49 ac be
       0.44179803 -0.31020442 -0.6030589 -0.33650193
000360 bd 40 09 3e 8a 89 96 bd d1 da e9 be 99 cb c5 be
       0.13403602 -0.07350452 -0.45674756 -0.38631895
000370 b1 9e 35 3f 21 ab 66 be 7d 54 a5 bf e4 b1 ad 3c
       0.7094527 -0.22526218 -1.2916409 0.021202989
000380 f8 ed b9 be c7 b6 a5 be eb 27 61 3e 85 b9 a2 be
       -0.36314368 -0.3236601 0.21987884 -0.31782165
000390 c2 33 9a be 1b a4 1f 3e 04 40 d1 be 08 ac 55 bf
       -0.30117613 0.15589945 -0.40869153 -0.83465624
0003a0 09 f0 d0 be 4f 3f 9a be 26 70 d5 be d0 68 4d 3c
       -0.40808132 -0.30126426 -0.41687125 0.012537196
0003b0 96 75 76 3e 5d 2f e4 bd 05 eb f9 bd 10 0e b1 3c
       0.24068293 -0.11141846 -0.122030295 0.02161315
0003c0 39 90 a9 be 5e c5 03 be e3 fd a9 bd 91 b5 9b bf
       -0.33117846 -0.12868258 -0.08300378 -1.2164785
0003d0 52 da 74 be 15 9a c9 be ec 7a 7b 3f ff fd 03 bf
       -0.23911408 -0.39375368 0.9823444 -0.5155944
0003e0 ea 53 3c bf 54 e8 b1 be b1 80 dd be 7a e7 7f be
       -0.7356554 -0.34747565 -0.43262246 -0.24990645
0003f0 e5 2a 53 bf 7c d4 27 bf 3c b9 15 be 73 28 a0 3e
       -0.82487327 -0.655586 -0.14621443 0.3128086
